handwriting_nums recognize/weights.npz (npz, 407034 bytes, 2 tensors)

arr_0 f4 [784, 128]
00000000: efa3 4fba a37c 3a3b 9bfa bf3a 7c48 233a
00000010: 4153 0ebb cf55 0ebb bed8 36bb 2c82 173b
00000020: 4959 273a 002f ac3a bb5c 46bb df6d 423b
00000030: 0c8d 093b 550b eeba caa5 03bb 7bfe 02bb
00000040: 2cfe a1ba 14e4 2339 4044 e1b9 edc2 acba
00000050: ce1e 393a 9829 15bb fb00 acba fa2c 5dba
00000060: 4d69 91b9 eafc eb3a 6986 f8ba c477 bc38
00000070: 02f3 183a f5a8 3bbb 89fd 313a cd52 08bb
00000080: aef6 33bb eeba 393b c2a8 403b 3c34 ff3a
00000090: 78af a1ba 7177 26bb b974 983a 6c19 c6b9
000000a0: 8862 1cbb a36f ffb7 94a6 40bb 1b5c 293b
000000b0: 199d c7ba 6d7d 863a f2cf 9bba 60da 0439
000000c0: 3c9d 9a39 e764 02bb 6c4b 423b 55ad e33a
000000d0: afd8 353b f85c 233b 1d07 223a d68d 2e3b
000000e0: c543 2abb 5094 fbba 832a 3cbb c88a 90ba
000000f0: 2c3e 38ba 6a36 bdba 9704 083b ff13 6dba
00000100: c947 b5ba b253 8d39 1692 14bb b912 fa3a
00000110: 8508 30bb 1f74 493b 8449 e13a 6151 f9ba
00000120: 2c98 4cbb 5c86 023b 8f2d ab3a df81 bd3a
00000130: 177b e03a 1e3e 30bb 783e 6aba fcef 1ebb
00000140: b43c 163b 0510 4c3a 4cef 8bba d994 34bb
00000150: 536a 9cba eda9 90ba c500 be3a 8ba9 633a
00000160: 6a36 203b e3f0 37b9 6765 1dbb b476 b03a
00000170: d6cd d73a e9d4 ca39 dd3a e03a c54b 24b8
00000180: 927e 1639 1ad8 efb9 a35c 44bb fe3c 22bb
00000190: 0ae0 41bb 8cc3 613a a39f 99ba e1f4 6238
000001a0: 53a2 283b 0677 cfba be51 14ba 1079 d33a
000001b0: 936c e0ba 3507 2fbb f7fb adba 2d2c 0cbb
000001c0: 82ca 313b 8ff9 fe3a aac9 5c3a eab1 193b
000001d0: 364b fb3a 2eaf 01bb b46c 223b ba39 8239
000001e0: 7569 fe3a dae2 233b ef9a 96ba 2658 21bb
000001f0: 6623 e1ba 3647 f1b9 d194 033b 5e41 153b
00000200: b300 4cbb 164c 8e38 06b0 08ba e3f5 e5ba
00000210: b048 1dbb 4f60 86ba f541 373b 754d 92ba
00000220: feca f838 6b00 a83a 98b2 61ba 2f34 433b
00000230: 6c57 3f3b 8467 cdba ddb8 91b7 cec6 a4ba
00000240: 530c b2ba f19d 3fbb 2b55 353a 4ce2 8d37
00000250: 5894 39bb 7f2c b7ba 69ec 283b 5784 d7ba
00000260: 82ed 12bb f8a5 8bb8 27f1 483b 2274 d5ba
00000270: f171 8e3a a37e d83a 011c d9ba 58da bc3a
00000280: cad2 5aba 7cf8 5a3a 07ff 5c3a 51d5 6c39
00000290: 6685 29bb f8bb 0a3b bb4e 94ba a4b4 01bb
000002a0: 1802 3ebb 506e 163a 01f0 923a 1104 48bb
000002b0: 891d a038 5354 e2ba 1244 703a d1bb 06bb
000002c0: 1401 9e3a f474 3bba 64b3 343b 92fa 15bb
000002d0: 3285 83ba b9ed 1fbb 78b8 2f3b 9b20 1c3b
000002e0: b24e c8ba b763 843a dd40 033b ebb7 b639
000002f0: 754a 4439 229f d5ba 705b 28bb f559 243b
00000300: 26ad 253b 9549 5c3a a134 85ba 3290 79ba
00000310: 6ffb ba3a c84e 243b 0929 203b 0d9a e73a
00000320: 3411 6b3a cc10 2cbb 0501 0cbb bae7 243b
00000330: ca24 303a ea12 4bbb 00e5 24bb ed4c 873a
00000340: f4c8 4cbb f357 0cbb e94f a139 e9cb 9e3a
00000350: 4480 7b3a fd2b e4ba f894 af3a 4b6e d9ba
00000360: 167c 90ba cff9 cb3a c4a5 773a 817e 103b
00000370: 666d 823a 2a1b e239 da1e 28bb 51ef 5aba
00000380: 8d4c c2ba 59da d3ba 4eb6 433b 49ed 30ba
00000390: 6c36 223b f409 593a 1bf6 f33a cfa9 8b37
000003a0: 9d8e fe39 b222 46b8 0d31 fcba 3915 b83a
000003b0: 236a b5ba 7cd1 44bb f7c2 703a 2399 05bb
000003c0: 543e 363b 1ad1 3b3b 56a7 2b3b 4ae4 56ba
000003d0: e37b 48bb 6f38 313b 21b7 edb9 1715 413b
000003e0: a2d3 3f3b 870f 123b d718 aaba cb2a 3eba
000003f0: 2949 113b 0a80 97ba 0cc0 08bb 1b04 bc39
-0.00079208513 0.0028455637 0.001464683 0.00062287576 -0.0021717104 -0.0021718626 -0.0027900185 0.002311836
0.0006383849 0.0013136566 -0.0030267674 0.002966754 0.0020988612 -0.0018161336 -0.0020087832 -0.0019988108
-0.0012359074 0.00015629857 -0.00042966194 -0.0013180651 0.000706178 -0.0022760388 -0.0013122851 -0.0008437183
-0.0002773501 0.0018004451 -0.0018960956 8.986847e-05 0.0005834551 -0.0028634642 0.0006789794 -0.0020801306
-0.0027460265 0.0028340179 0.0029397462 0.0019470523 -0.0012335619 -0.0025400782 0.0011631466 -0.00037784444
-0.002386244 -3.0450354e-05 -0.0029396163 0.0025842253 -0.0015229314 0.0010260768 -0.0011887534 0.00012669852
0.00029490318 -0.0019896568 0.0029647006 0.0017370383 0.0027747562 0.002492724 0.00061808695 0.0026634834
-0.0025980335 -0.0019193981 -0.0028711862 -0.0011027688 -0.00070283073 -0.0014435772 0.002075469 -0.0009043812
-0.0013830598 0.00026955974 -0.0022670082 0.0019079066 -0.0026860547 0.003073938 0.0017188047 -0.0019021445
-0.0031218631 0.001991651 0.0013059842 0.001445826 0.0017126527 -0.0026892493 -0.00089357 -0.0024251929
0.0022924365 0.00077843695 -0.0010676174 -0.002755454 -0.0011933543 -0.001103697 0.0014496079 0.00086846267
0.0024446496 -0.00017541977 -0.002401674 0.0013463111 0.0016464542 0.00038687073 0.0017107386 -3.9171213e-05
0.00014352266 -0.0004574664 -0.0029962442 -0.0024755592 -0.0029583 0.00086122076 -0.0011720549 5.411066e-05
0.0025731518 -0.0015828318 -0.00056579325 0.0016134102 -0.0017122201 -0.0026707177 -0.0013273944 -0.0021388636
0.002712876 0.0019453036 0.0008422384 0.0023451992 0.0019172195 -0.0019788253 0.002478403 0.00024838542
0.0019410091 0.002500704 -0.0011490266 -0.002461919 -0.0017176687 -0.00046020158 0.0020077715 0.0022774558
-0.0031128346 6.78526e-05 -0.0005214218 -0.0017544593 -0.0023999624 -0.0010252091 0.0027962897 -0.0011162
0.00011863372 0.0012817507 -0.00086096814 0.0029785743 0.0029196395 -0.0015671109 -1.737143e-05 -0.0012571455
-0.0013583995 -0.0029238428 0.0006917293 1.6913888e-05 -0.002831718 -0.0013975053 0.0025775677 -0.0016442639
-0.0022419398 -6.6589506e-05 0.0030661316 -0.0016285221 0.0010867697 0.0016517233 -0.0016564132 0.0014408333
-0.000834745 0.0008353067 0.0008430336 0.0002258618 -0.0025866865 0.0021169167 -0.0011314967 -0.0019791508
-0.0028992947 0.0005738484 0.0011210443 -0.0030520002 7.634896e-05 -0.0017267562 0.00091654167 -0.0020558725
0.0012054765 -0.0007150911 0.0027572745 -0.0022884947 -0.0010034202 -0.0024403168 0.0026812833 0.0023823145
-0.0015282242 0.0010100518 0.0020027675 0.00034850775 0.00018719754 -0.0016298036 -0.0025689267 0.0025078033
0.0025280206 0.00084032986 -0.0010162779 -0.0009520083 0.0014265607 0.0025071371 0.0024438521 0.0017669812
0.0008967102 -0.002625513 -0.0021362912 0.0025162534 0.0006719349 -0.0030986615 -0.0025160909 0.0010322608
-0.0031247707 -0.0021414727 0.0003076785 0.0012115213 0.0009594003 -0.0017408129 0.0013395837 -0.0016588656
-0.0011023309 0.001556212 0.0009447003 0.0022048058 0.0009950816 0.00043126318 -0.0025653155 -0.0008351701
-0.0014823839 -0.0016163095 0.00298633 -0.00067492254 0.0024751676 0.0008279376 0.0018612774 1.6649165e-05
0.0004855291 -4.723919e-05 -0.0019240692 0.0014044411 -0.0013840835 -0.003003209 0.00091843255 -0.0020385466
0.0027808147 0.002865857 0.002619227 -0.000819747 -0.003059142 0.0027041694 -0.00045340604 0.0029462033
0.002927043 0.0022287087 -0.0012977374 -0.00072543015 0.002216885 -0.0011558544 -0.0020866422 0.00035861213

arr_1 f4 [128, 10]
00000000: bd01 3d3d 6595 58bc ec69 3d3d ce94 483d
00000010: 8ad4 003d 46b1 cb3c f29e 483d 902e 10bc
00000020: dcec cd3c e0e7 4a3c 327d 8bbc 69aa 9ebc
00000030: 731a d03c 5ab6 49bc c866 d33c 1bb2 3cbc
00000040: 401d 2a3c da23 233d 63b3 323c b94d 263d
00000050: ae2c ae3c 0a56 54bc f6d8 283d 5f8a 0b3b
00000060: 5714 273d 788d 01bc 7d38 f33c 9ed5 57bc
00000070: e5ca 86bc aabe 373d 68d2 dfbc bfca e23b
00000080: dee6 ddbc 409f 503b 0f2d b5bc e6e0 853c
00000090: ed5c 3bbc 4194 06bc 26e9 5fbc f626 afbc
000000a0: ed70 603c 75a2 763c 655f 6d3c ce3f a03c
000000b0: b556 b7bc 41cf d03a 2f38 943c cac0 16bc
000000c0: 34d5 66bc 0f30 cd3b de1c 163d 1d1b 323d
000000d0: 8e67 3b3c 0fbf 9db8 1a21 353d d16d e13c
000000e0: 99dd 413d 21bc f73b 4fc4 d93c 351b 663b
000000f0: 4206 363d 6c87 a83c eace 743c 5aed 373d
00000100: 0fe9 2fbc 5ef9 9a3c 12e0 8dbc 588a deba
00000110: 8101 38bc 83af 81bc 220c 063d 3d62 e63b
00000120: 9a18 c937 e622 1f3d 2ddf 923c 9cbc 213c
00000130: 5284 203d baca cf3c 0c5c 0e3d 46cd 113c
00000140: 9b5c 4d3d 4363 593d 2031 203d 45ba ca3b
00000150: 0622 083d ab1d 0d3d 190d 713c af8f 6ebc
00000160: d1d2 a03b 6be8 c23c 4df8 47bc b4b0 1b3d
00000170: d016 073c e256 45bc e041 d33c f1fd a8bc
00000180: 618a cf3c a8cd 583d c49a c53c 623e 0f3c
00000190: 86be 3d3d 9db7 c23c 13f6 a03c e1a2 0cb9
000001a0: 4779 bebc bb6c 05bc e470 213d bea1 45bc
000001b0: 41a5 113a 2674 0c3c 38a2 26bc 36d0 3a3d
000001c0: cb70 253d 5969 b1bc 8b0d c13c 6819 b0bb
000001d0: c860 ab3c a956 ea3c ffa2 babc 19d0 db3c
000001e0: cc17 5ebc c5ce f93c 987e 243d 0a74 5fbc
000001f0: 1667 d8bb 3cdf b8bc fa2b 8c3c d507 353d
00000200: f0db 363c 12ac 2cb9 3f44 423d b88f ff3c
00000210: 0073 433d f107 153d 1640 343d ef52 cf3c
00000220: fd44 4b3d 8616 eb3c 8326 d23c 7f8d 5338
00000230: ab7f 483d c5de 383c 25df f63c 23b1 4f3c
00000240: 3939 2d3d 8bab bbbb 5760 353d 3784 0a3d
00000250: 3ecd 2f3d 0b41 a33c aaaf b2b9 b2ac f5bb
00000260: 35b7 18bc 70aa abbc 293f 1cbc 3f22 ca3b
00000270: 355c bdbc 842a 8dbc 8d38 a53c f891 babc
00000280: ac6b 1f3c c700 d2bc 5ca8 053d a9be 273d
00000290: b61e 2d3d 494d 1e3d a15c 883c 682b f43c
000002a0: bef8 db3c e0e4 313d e217 233d 021a a03c
000002b0: c723 763c 2ebb 703a b726 cabc c01b 66bc
000002c0: f4cf aabb cdba dc3c dbe7 c53c bb51 113d
000002d0: beaf d73c 061d 823c 3e22 fb3c a196 773b
000002e0: 045c 9fbc 2edf babc b3db 033d 196f 403d
000002f0: aedf b63c e5f4 b8bc 6aa5 133c 38d5 5e3d
00000300: bf21 073d c813 123d c72a 1c3d da05 243d
00000310: 363a 9b3c 8a6c c03c 1422 11bc 1916 383d
00000320: 75ce 853b 2f87 cb3c 1e09 da3c 6ac8 4c3d
00000330: cdf6 7b3c 64e3 d73c 6e5b 423d 3aed fe3c
00000340: 0c22 a13c c11d c93c 799a 2d3d e3e1 c6bc
00000350: 9400 0b3d 2fff 39bc 7ea2 023d 7974 023d
00000360: beda ed3c 6c1d f23b 5a7e df3c 14d4 8fbc
00000370: 299d fe3c aaff 57bc 25c6 d43c bc06 92bc
00000380: 43b5 83bc c110 6c3b 7d8c 8a3c 7dd1 72bb
00000390: bd26 383c 872a c4bc 9552 84bc 8c5d debc
000003a0: ba85 d83b 00ab 973c fc29 60b9 c0ea 92b9
000003b0: 85fc 24bb 688a 0dbc cf86 d23b 84ef dfbc
000003c0: 8323 f33c a39e e53c c1cb e23c afc2 263d
000003d0: b29b 173d e233 093d 8892 8d3c 16d8 5fbb
000003e0: 33c1 16b8 ed04 b1bc 7652 353c ae23 653d
000003f0: 23da 083d 5b19 b23c bc4e 22bc f08f 7bbc
0.046144236 -0.013219212 0.046243593 0.048970036 0.031452693 0.024864804 0.048979707 -0.008800164
0.025137357 0.012384385 -0.017027471 -0.019368367 0.025403237 -0.012311542 0.025805846 -0.011517073
0.01038295 0.039829113 0.010907027 0.040601466 0.02126154 -0.012959966 0.041222535 0.0021292192
0.040790882 -0.007907264 0.029690022 -0.013173489 -0.01645417 0.044859566 -0.02732201 0.006921142
-0.027087625 0.0031833202 -0.022116212 0.016342591 -0.011435729 -0.008214057 -0.013666427 -0.021380883
0.013698799 0.015053381 0.014488076 0.019561674 -0.022380212 0.0015930907 0.018093197 -0.009201238
-0.0140889175 0.0062618325 0.036648624 0.04348289 0.011438264 -7.521931e-05 0.04422102 0.027518185
0.047330473 0.0075602685 0.026582865 0.0035111431 0.04443956 0.020572387 0.01494191 0.04490409
-0.010736718 0.018917736 -0.01731876 -0.0016978486 -0.011230827 -0.01583076 0.032726415 0.007030754
2.3972523e-05 0.03885164 0.017928684 0.009871628 0.03918869 0.025365222 0.03475575 0.008899039
0.050137144 0.05307318 0.03910935 0.006186756 0.033235572 0.03445212 0.014712595 -0.014560624
0.004907944 0.023792466 -0.012205196 0.038010314 0.008245185 -0.01204464 0.025788248 -0.020628901
0.025334539 0.052930504 0.02412165 0.008742901 0.046324275 0.023769194 0.019648587 -0.00013412118
-0.023251189 -0.008143599 0.0394143 -0.012062488 0.0005555936 0.008572614 -0.010170512 0.04560872
0.04039077 -0.021656679 0.023566028 -0.0053741224 0.020920172 0.028605776 -0.0227828 0.026832627
-0.013555478 0.030494103 0.04015979 -0.013638506 -0.0066040857 -0.022567384 0.017110813 0.044196922
0.011160836 -0.000164673 0.047428366 0.03119646 0.047717094 0.036384527 0.04400643 0.0253081
0.04962634 0.028697263 0.02565313 5.04381e-05 0.04894988 0.011283581 0.0301357 0.01267651
0.0422909 -0.0057272366 0.04428133 0.033817496 0.042920344 0.019928476 -0.00034081686 -0.0074973935
-0.009321024 -0.020955294 -0.009536543 0.0061686332 -0.023115257 -0.017232187 0.020168567 -0.022774681
0.009730261 -0.025635136 0.032631263 0.040953312 0.042265616 0.038647924 0.016645731 0.029805854
0.026852008 0.043431163 0.0398177 0.019543651 0.015023178 0.00091831654 -0.024676664 -0.014044702
-0.005212778 0.026944542 0.024158409 0.035478335 0.026328918 0.01588298 0.030655976 0.003777899
-0.019453056 -0.022811498 0.032191943 0.04698095 0.022323456 -0.022577712 0.009011606 0.05440256
0.032991167 0.035663396 0.038126733 0.040044643 0.018948656 0.023489255 -0.0088582225 0.04494295
0.0040834495 0.024844734 0.026615676 0.049995817 0.015378666 0.026353545 0.047450475 0.031118978
0.019669555 0.02455032 0.042383645 -0.024277633 0.0339361 -0.011352344 0.031893246 0.03184936
0.029034968 0.0073887613 0.027281929 -0.017557181 0.0310808 -0.013183514 0.025973389 -0.017825477
-0.016077643 0.0036020728 0.016912693 -0.0037051134 0.011239705 -0.02394606 -0.01615266 -0.027144216
0.0066077383 0.018514156 -0.00021377945 -0.00028022192 -0.0025174927 -0.008638956 0.006424762 -0.02733589
0.02968002 0.028029745 0.027685048 0.04071301 0.037013717 0.033496745 0.017281786 -0.0034155897
-3.5942718e-05 -0.021608794 0.0110670235 0.05594223 0.033411156 0.021740606 -0.009906467 -0.015354142
